…
s):</span><br><span class="line"><span class="meta">... </span>            x = self.linears[i // <span class="number">2</span>](x) + l(x)</span><br><span class="line"><span class="meta">... </span>        <span class="keyword">return</span> x</span><br><span class="line">    </span><br><span class="line"><span class="meta">&gt;&gt;&gt; </span>myModeul = MyModule()</span><br><span class="line"><span class="meta">&gt;&gt;&gt; </span>myModeul</span><br><span class="line">MyModule(</span><br><span class="line">  (linears): ModuleList(</span><br><span class="line">    (<span class="number">0</span>): Linear(in_features=<span class="number">10</span>, out_features=<span class="number">10</span>, bias=<span class="literal">True</span>)</span><br><span class="line">    (<span class="number">1</span>): Linear(in_features=<span class="number">10</span>, out_features=<span class="number">10</span>, bias=<span class="literal">True</span>)</span><br><span class="line">    (<span class="number">2</span>): Linear(in_features=<span class="number">10</span>, out_features=<span class="number">10</span>, bias=<span class="literal">True</span>)</span><br><span class="line">    (<span class="number">3</span>): Linear(in_features=<span class="number">10</span>, out_features=<span class="number">10</span>, bias=<span class="literal">True</span>)</span><br><span class="line">    (<span class="number">4</span>): Linear(in_features=<span class="number">10</span>, out_features=<span class="number">10</span>, bias=<span class="literal">True</span>)</span><br><span class="line">    (<span class="number">5</span>): Linear(in_features=<span class="number">10</span>, out_features=<span class="number">10</span>, bias=<span class="literal">True</span>)</span><br><span class="line">    (<span class="number">6</span>): Linear(in_features=<span class="number">10</span>, out_features=<span class="number">10</span>, bias=<span class="literal">True</span>)</span><br><span class="line">    (<span class="number">7</span>): Linear(in_features=<span class="number">10</span>, out_features=<span class="number">10</span>, bias=<span class="literal">True</span>)</span><br><span class="line">    (<span class="number">8</span>): Linear(in_features=<span class="number">10</span>, out_features=<span class="number">10</span>, bias=<span class="literal">True</span>)</span><br><span class="line">    (<span class="number">9</span>): Linear(in_features=<span class="number">10</span>, out_features=<span class="number">10</span>, bias=<span class="literal">True</span>)</span><br><span class="line">    (<span class="number">10</span>): Linear(in_features=<span class="number">10</span>, out_features=<span class="number">1</span>, bias=<span class="literal">True</span>) <span class="comment"># append 进的层</span></span><br><span class="line">  )</span><br><span class="line">)</span><br></pre></td></tr></table></figure><h1 id="4-torch-nn-ModuleDict"><a href="#4-torch-nn-ModuleDict" class="headerlink" title="4. torch.nn.ModuleDict"></a>4. <c
…
