…
Sequential( nn.Conv2d(3, 6, 5), nn.ReLU(), nn.MaxPool2d(kernel_size=2, stride=2), nn.Conv2d(6, 16, 5), nn.ReLU(), nn.MaxPool2d(kernel_size=2, stride=2),) self.classifier = nn.Sequential( nn.Linear(16*5*5, 120), nn.ReLU(), nn.Linear(120, 84), nn.ReLU(), nn.Linear(84, classes),) def forward(self, x): x = self.features(x) x = x.view(x.size()[0], -1) x = self.classifier(x) return x 放在模型里面的话，模型还是需要 __init__ 和 forward 函数。 这样构建出来的模型的层没有名字： 12345678910111213&gt;&gt;&gt; model2 = nn.Sequential(... nn.Conv2d(1,20,5),... nn.ReLU(),... nn.Conv2d(20,64,5),... nn.ReLU()... )&gt;&gt;&gt; model2Sequential( (0): Conv2d(1, 20, kernel_size=(5, 5), stride=(1, 1)) (1): ReLU() (2): Conv2d(20, 64, kernel_size=(5, 5), stride=(1, 1)) (3): ReLU()) 为了方便区分不同的层，我们可以使用 collections 里的 OrderedDict 函数： 1234567891011121314&gt;&gt;&gt; from collections import OrderedDict&gt;&gt;&gt; model3 = nn.Sequential(OrderedDict([... ('conv1', nn.Conv2d(1,20,5)),... ('relu1', nn.ReLU()),... ('conv2', nn.Conv2d(20,64,5)),... ('relu2', nn.ReLU())... ]))&gt;&gt;&gt; model3Sequential( (conv1): Conv2d(1, 20, kernel_size=(5, 5), stride=(1, 1)) (relu1): ReLU() (conv2): Conv2d(20, 64, kernel_size=(5, 5), stride=(1, 1)) (relu2): ReLU()) 3. torch.nn.ModuleList将网络层存储进一个列表，可以使用列表生成式快速生成网络，生成的网络层可以被索引，也拥有列表的方法 append，extend 或 insert。 123456789101112131415161718192021222324252627&gt;&gt;&gt; class MyModule(nn.Module):... def __init__(self):... super(MyModule, self).__init__()... self.linears = nn.ModuleList([nn.Linear(10, 10) for i in range(10)])... self.linears.append(nn.Linear(10, 1)) # append... def forward(self, x):... for i, l in enumerate(self.linears):... x = self.linears[i // 2](x) + l(x)... return x &gt;&gt;&gt; myModeul = MyModule()&gt;&gt;&gt; myModeulMyModule( (linears): ModuleList( (0): Linear(in_features=10, out_features=10, bias=True) (1): Linear(in_features=10, out_features=10, bias=True) (2): Linear(in_features=10, out_features=10, bias=True) (3): Linear(in_features=10, out_features=10, bias=True) (4): Linear(in_features=10, out_features=10, bias=True) (5): Linear(in_features=10, out_features=10, bias=True) (6): Linear(in_features=10, out_features=10, bias=True) (7): Linear(in_features=10, out_features=10, bias=True) (8): Linear(in_features=10, out_features=10, bias=True) (9): Linear(in_features=10, out_features=10, bias=True) (10): Linear(in_features=10, out_features=1, bias=True) # append 进的层 )) 4. torch.nn.ModuleDict这个函数与上面的 torch.nn.Sequential(OrderedDict(...)) 的行为非常类似，并且拥有 keys，values，items，pop，update 等词典的方法： 123456789101112131415161718192021222324252627&gt;&gt;&gt; class MyDictDense(nn.Module):... def __init__(self):... super(MyDictDense, self).__init__()... self.params = nn.ModuleDict(&#123;... 'linear1': nn.Linear(512, 128),... 'linear2': nn.Linear(128, 32)... &#125;)... self.params.update(&#123;'linear3': nn.Linear(32, 10)&#125;) # 添加层... def forward(self, x, choice='linear1'):... return torch.mm(x, self.params[choice])&gt;&gt;&gt; net = MyDictDense()&gt;&gt;&gt; print(net)MyDictDense( (params): ModuleDict( (linear1): Linear(in_features=512, out_features=128, bias=True) (linear2): Linear(in_features=128, out_features=32, bias=True) (linear3): Linear(in_features=32, out_features=10, bias=True) ))&gt;&gt;&gt; print(net.params.keys())odict_keys(['linear1', 'linear2', 'linear3'])&gt;&gt;&gt; print(net.params.items())odict_items([('linear1', Linear(in_features=512, out_features=128, bias=True)), ('linear2', Linear(in_features=128, out_features=32, bias=True)), ('linear3', Linear(in_features=32, out_features=10, bias=True))]) 欢迎关注我的微信公众号“花解语 NLP”："
…
